mlartifacts/0/1e465ff6d1c74cb6b7922c539b546fec/artifacts/xor-model/data/model.pth (torch, 5056 bytes, 3 tensors)

weight f4 [4, 2]
0.21638459 -0.5315641 0.78698283 0.8232532 -2.6447117 -2.6942267 -2.004289 -1.9261401
00000000: ec93 5d3e 9614 08bf b577 493f b9c0 523f
00000010: f542 29c0 366e 2cc0 4546 00c0 c28b f6bf

bias f4 [4]
-1.1652476 0.19617608 1.1121283 2.9257417
00000000: d526 95bf 62e2 483e 385a 8e3f 5a3f 3b40

weight f4 [1, 4]
1.6067489 0.120285675 -3.5190413 3.4657516
00000000: f3a9 cd3f 5658 f63d f937 61c0 e0ce 5d40
