mlartifacts/0/b62319bf5c1646ed84e91476a6da4872/artifacts/xor-model/data/model.pth (torch, 5056 bytes, 3 tensors)

weight f4 [4, 2]
000000 e4 8b 60 c0 1b 22 4d 40 57 6b 62 bf 1a 90 64 bf
       -3.5085382 3.2052066 -0.8844504 -0.8928238
000010 17 44 05 be e5 59 11 be ce f5 4b 40 0f 31 60 c0
       -0.13014255 -0.14194448 3.1868777 -3.5029943

bias f4 [4]
000000 10 8a cb bf 97 2e 24 bf 37 8a a8 bf f8 db c9 bf
       -1.5901508 -0.6413359 -1.316718 -1.5770254

weight f4 [1, 4]
000000 e5 47 b5 40 3a ae fe bf f1 d1 d2 bf db 7a b5 40
       5.665026 -1.989692 -1.6470319 5.671247
